Running on local02
Namespace(batch_size=32, checkpoint_every=4, checkpoint_path='weights/language_parser/defaults_simple.pt', d_model=6, dim_feedforward=20, dropout=0.1, ffn_exp=3, learning_rate=0.001, load_weights_from=None, model_type='language_parser', nhead=1, num_decoder_layers=2, num_encoder_layers=2, num_epochs=100, num_parts=16, num_runs=20, out_attn_wts='train_defaults_simple_attn_maps', out_data_file='train_defaults_simple', record_loss_every=20, results_dir='language_parser', split='simple')
Model size: 4852
LanguageParser(
  (src_embedding): Embedding(17, 6)
  (trg_embedding): Embedding(10, 6)
  (positional_encoding): PositionalEncoding(
    (dropout): Dropout(p=0.1, inplace=False)
  )
  (encoder): LPEncoder(
    (block_1): LPBlock(
      (encoder): Encoder(
        (enc_attn): AnyAttention(
          (norm_q): LayerNorm((6,), eps=1e-05, elementwise_affine=True)
          (norm_k): LayerNorm((6,), eps=1e-05, elementwise_affine=True)
          (norm_v): LayerNorm((6,), eps=1e-05, elementwise_affine=True)
          (to_q): Linear(in_features=6, out_features=6, bias=False)
          (to_k): Linear(in_features=6, out_features=6, bias=False)
          (to_v): Linear(in_features=6, out_features=6, bias=False)
          (proj): Linear(in_features=6, out_features=6, bias=True)
        )
        (reason): SimpleReasoning(
          (norm): LayerNorm((6,), eps=1e-05, elementwise_affine=True)
          (linear): Conv1d(16, 16, kernel_size=(1,), stride=(1,), bias=False)
        )
        (enc_ffn): MLP(
          (norm): LayerNorm((6,), eps=1e-05, elementwise_affine=True)
          (fc1): Linear(in_features=6, out_features=6, bias=True)
          (act): GELU()
          (fc2): Linear(in_features=6, out_features=6, bias=True)
          (drop): Dropout(p=0.0, inplace=False)
        )
      )
      (decoder): Decoder(
        (attn1): AnyAttention(
          (norm_q): LayerNorm((6,), eps=1e-05, elementwise_affine=True)
          (norm_k): LayerNorm((6,), eps=1e-05, elementwise_affine=True)
          (norm_v): LayerNorm((6,), eps=1e-05, elementwise_affine=True)
          (to_q): Linear(in_features=6, out_features=6, bias=False)
          (to_k): Linear(in_features=6, out_features=6, bias=False)
          (to_v): Linear(in_features=6, out_features=6, bias=False)
          (proj): Linear(in_features=6, out_features=6, bias=True)
        )
        (attn2): AnyAttention(
          (norm_q): LayerNorm((6,), eps=1e-05, elementwise_affine=True)
          (norm_k): LayerNorm((6,), eps=1e-05, elementwise_affine=True)
          (norm_v): LayerNorm((6,), eps=1e-05, elementwise_affine=True)
          (to_q): Linear(in_features=6, out_features=6, bias=False)
          (to_k): Linear(in_features=6, out_features=6, bias=False)
          (to_v): Linear(in_features=6, out_features=6, bias=False)
          (proj): Linear(in_features=6, out_features=6, bias=True)
        )
        (ffn1): MLP(
          (norm): LayerNorm((6,), eps=1e-05, elementwise_affine=True)
          (fc1): Linear(in_features=6, out_features=18, bias=True)
          (act): GELU()
          (fc2): Linear(in_features=18, out_features=6, bias=True)
          (drop): Dropout(p=0.0, inplace=False)
        )
        (ffn2): MLP(
          (norm): LayerNorm((6,), eps=1e-05, elementwise_affine=True)
          (fc1): Linear(in_features=6, out_features=18, bias=True)
          (act): GELU()
          (fc2): Linear(in_features=18, out_features=6, bias=True)
          (drop): Dropout(p=0.0, inplace=False)
        )
      )
      (whole_qpos): PositionalEncoding(
        (dropout): Dropout(p=0.1, inplace=False)
      )
    )
    (block_2): LPBlock(
      (encoder): Encoder(
        (enc_attn): AnyAttention(
          (norm_q): LayerNorm((6,), eps=1e-05, elementwise_affine=True)
          (norm_k): LayerNorm((6,), eps=1e-05, elementwise_affine=True)
          (norm_v): LayerNorm((6,), eps=1e-05, elementwise_affine=True)
          (to_q): Linear(in_features=6, out_features=6, bias=False)
          (to_k): Linear(in_features=6, out_features=6, bias=False)
          (to_v): Linear(in_features=6, out_features=6, bias=False)
          (proj): Linear(in_features=6, out_features=6, bias=True)
        )
        (reason): SimpleReasoning(
          (norm): LayerNorm((6,), eps=1e-05, elementwise_affine=True)
          (linear): Conv1d(16, 16, kernel_size=(1,), stride=(1,), bias=False)
        )
        (enc_ffn): MLP(
          (norm): LayerNorm((6,), eps=1e-05, elementwise_affine=True)
          (fc1): Linear(in_features=6, out_features=6, bias=True)
          (act): GELU()
          (fc2): Linear(in_features=6, out_features=6, bias=True)
          (drop): Dropout(p=0.0, inplace=False)
        )
      )
      (decoder): Decoder(
        (attn1): AnyAttention(
          (norm_q): LayerNorm((6,), eps=1e-05, elementwise_affine=True)
          (norm_k): LayerNorm((6,), eps=1e-05, elementwise_affine=True)
          (norm_v): LayerNorm((6,), eps=1e-05, elementwise_affine=True)
          (to_q): Linear(in_features=6, out_features=6, bias=False)
          (to_k): Linear(in_features=6, out_features=6, bias=False)
          (to_v): Linear(in_features=6, out_features=6, bias=False)
          (proj): Linear(in_features=6, out_features=6, bias=True)
        )
        (attn2): AnyAttention(
          (norm_q): LayerNorm((6,), eps=1e-05, elementwise_affine=True)
          (norm_k): LayerNorm((6,), eps=1e-05, elementwise_affine=True)
          (norm_v): LayerNorm((6,), eps=1e-05, elementwise_affine=True)
          (to_q): Linear(in_features=6, out_features=6, bias=False)
          (to_k): Linear(in_features=6, out_features=6, bias=False)
          (to_v): Linear(in_features=6, out_features=6, bias=False)
          (proj): Linear(in_features=6, out_features=6, bias=True)
        )
        (ffn1): MLP(
          (norm): LayerNorm((6,), eps=1e-05, elementwise_affine=True)
          (fc1): Linear(in_features=6, out_features=18, bias=True)
          (act): GELU()
          (fc2): Linear(in_features=18, out_features=6, bias=True)
          (drop): Dropout(p=0.0, inplace=False)
        )
        (ffn2): MLP(
          (norm): LayerNorm((6,), eps=1e-05, elementwise_affine=True)
          (fc1): Linear(in_features=6, out_features=18, bias=True)
          (act): GELU()
          (fc2): Linear(in_features=18, out_features=6, bias=True)
          (drop): Dropout(p=0.0, inplace=False)
        )
      )
      (whole_qpos): PositionalEncoding(
        (dropout): Dropout(p=0.1, inplace=False)
      )
    )
  )
  (decoder): LPDecoder(
    (norm): LayerNorm((6,), eps=1e-05, elementwise_affine=True)
    (layers): ModuleList(
      (0): TransformerDecoderLayer(
        (self_attn): MultiheadAttention(
          (out_proj): NonDynamicallyQuantizableLinear(in_features=6, out_features=6, bias=True)
        )
        (multihead_attn): MultiheadAttention(
          (out_proj): NonDynamicallyQuantizableLinear(in_features=6, out_features=6, bias=True)
        )
        (linear1): Linear(in_features=6, out_features=20, bias=True)
        (dropout): Dropout(p=0.1, inplace=False)
        (linear2): Linear(in_features=20, out_features=6, bias=True)
        (norm1): LayerNorm((6,), eps=1e-05, elementwise_affine=True)
        (norm2): LayerNorm((6,), eps=1e-05, elementwise_affine=True)
        (norm3): LayerNorm((6,), eps=1e-05, elementwise_affine=True)
        (dropout1): Dropout(p=0.1, inplace=False)
        (dropout2): Dropout(p=0.1, inplace=False)
        (dropout3): Dropout(p=0.1, inplace=False)
      )
      (1): TransformerDecoderLayer(
        (self_attn): MultiheadAttention(
          (out_proj): NonDynamicallyQuantizableLinear(in_features=6, out_features=6, bias=True)
        )
        (multihead_attn): MultiheadAttention(
          (out_proj): NonDynamicallyQuantizableLinear(in_features=6, out_features=6, bias=True)
        )
        (linear1): Linear(in_features=6, out_features=20, bias=True)
        (dropout): Dropout(p=0.1, inplace=False)
        (linear2): Linear(in_features=20, out_features=6, bias=True)
        (norm1): LayerNorm((6,), eps=1e-05, elementwise_affine=True)
        (norm2): LayerNorm((6,), eps=1e-05, elementwise_affine=True)
        (norm3): LayerNorm((6,), eps=1e-05, elementwise_affine=True)
        (dropout1): Dropout(p=0.1, inplace=False)
        (dropout2): Dropout(p=0.1, inplace=False)
        (dropout3): Dropout(p=0.1, inplace=False)
      )
    )
  )
  (linear): Linear(in_features=6, out_features=10, bias=True)
)
Run: 0 Epochs:  0 Iter:  0 Loss:  2.7333872318267822
Checking training accuracy...
Training accuracy is  0.0
Checking development accuracy...
Development accuracy is  0.0
Checking test accuracy...
Test accuracy is  0.0
Run: 0 Epochs:  1 Iter:  0 Loss:  2.5823121070861816
Run: 0 Epochs:  1 Iter:  20 Loss:  2.2405569553375244
Run: 0 Epochs:  1 Iter:  40 Loss:  2.061103582382202
…
