Running on local02
Namespace(batch_size=32, checkpoint_every=4, checkpoint_path='weights/transformer/defaults_simple.pt', d_model=12, dim_feedforward=20, dropout=0.1, ffn_exp=3, learning_rate=0.001, load_weights_from=None, model_type='transformer', nhead=2, num_decoder_layers=2, num_encoder_layers=2, num_epochs=100, num_parts=16, num_runs=20, out_attn_wts='train_defaults_simple_attn_maps', out_data_file='train_defaults_simple', record_loss_every=20, results_dir='transformer', split='simple')
Model size: 6534
Transformer(
  (src_embedding): Embedding(17, 12)
  (trg_embedding): Embedding(10, 12)
  (positional_encoding): PositionalEncoding(
    (dropout): Dropout(p=0.1, inplace=False)
  )
  (encoder): TransformerEncoder(
    (norm): LayerNorm((12,), eps=1e-05, elementwise_affine=True)
    (layers): ModuleList(
      (0): TransformerEncoderLayer(
        (self_attn): MultiheadAttention(
          (out_proj): NonDynamicallyQuantizableLinear(in_features=12, out_features=12, bias=True)
        )
        (linear1): Linear(in_features=12, out_features=20, bias=True)
        (dropout): Dropout(p=0.1, inplace=False)
        (linear2): Linear(in_features=20, out_features=12, bias=True)
        (norm1): LayerNorm((12,), eps=1e-05, elementwise_affine=True)
        (norm2): LayerNorm((12,), eps=1e-05, elementwise_affine=True)
        (dropout1): Dropout(p=0.1, inplace=False)
        (dropout2): Dropout(p=0.1, inplace=False)
      )
      (1): TransformerEncoderLayer(
        (self_attn): MultiheadAttention(
          (out_proj): NonDynamicallyQuantizableLinear(in_features=12, out_features=12, bias=True)
        )
        (linear1): Linear(in_features=12, out_features=20, bias=True)
        (dropout): Dropout(p=0.1, inplace=False)
        (linear2): Linear(in_features=20, out_features=12, bias=True)
        (norm1): LayerNorm((12,), eps=1e-05, elementwise_affine=True)
        (norm2): LayerNorm((12,), eps=1e-05, elementwise_affine=True)
        (dropout1): Dropout(p=0.1, inplace=False)
        (dropout2): Dropout(p=0.1, inplace=False)
      )
    )
  )
  (decoder): LPDecoder(
    (norm): LayerNorm((12,), eps=1e-05, elementwise_affine=True)
    (layers): ModuleList(
      (0): TransformerDecoderLayer(
        (self_attn): MultiheadAttention(
          (out_proj): NonDynamicallyQuantizableLinear(in_features=12, out_features=12, bias=True)
        )
        (multihead_attn): MultiheadAttention(
          (out_proj): NonDynamicallyQuantizableLinear(in_features=12, out_features=12, bias=True)
        )
        (linear1): Linear(in_features=12, out_features=20, bias=True)
        (dropout): Dropout(p=0.1, inplace=False)
        (linear2): Linear(in_features=20, out_features=12, bias=True)
        (norm1): LayerNorm((12,), eps=1e-05, elementwise_affine=True)
        (norm2): LayerNorm((12,), eps=1e-05, elementwise_affine=True)
        (norm3): LayerNorm((12,), eps=1e-05, elementwise_affine=True)
        (dropout1): Dropout(p=0.1, inplace=False)
        (dropout2): Dropout(p=0.1, inplace=False)
        (dropout3): Dropout(p=0.1, inplace=False)
      )
      (1): TransformerDecoderLayer(
        (self_attn): MultiheadAttention(
          (out_proj): NonDynamicallyQuantizableLinear(in_features=12, out_features=12, bias=True)
        )
        (multihead_attn): MultiheadAttention(
          (out_proj): NonDynamicallyQuantizableLinear(in_features=12, out_features=12, bias=True)
        )
        (linear1): Linear(in_features=12, out_features=20, bias=True)
        (dropout): Dropout(p=0.1, inplace=False)
        (linear2): Linear(in_features=20, out_features=12, bias=True)
        (norm1): LayerNorm((12,), eps=1e-05, elementwise_affine=True)
        (norm2): LayerNorm((12,), eps=1e-05, elementwise_affine=True)
        (norm3): LayerNorm((12,), eps=1e-05, elementwise_affine=True)
        (dropout1): Dropout(p=0.1, inplace=False)
        (dropout2): Dropout(p=0.1, inplace=False)
        (dropout3): Dropout(p=0.1, inplace=False)
      )
    )
  )
  (linear): Linear(in_features=12, out_features=10, bias=True)
)
Run: 0 Epochs:  0 Iter:  0 Loss:  3.208677053451538
Checking training accuracy...
Training accuracy is  0.0
Checking development accuracy...
Development accuracy is  0.0
Checking test accuracy...
Test accuracy is  0.0
Run: 0 Epochs:  1 Iter:  0 Loss:  3.046128273010254
Run: 0 Epochs:  1 Iter:  20 Loss:  1.985630750656128
Run: 0 Epochs:  1 Iter:  40 Loss:  1.7429286241531372
…
